…
log_dir /mnt/home/bregaldosaintblancard/Projects/Foundation Models/VideoMAE_comparison/ceph/pdebench_finetuning/k400_s/k400_s_turb_224_test/
Raw dataset compNS_turb has 1000 samples of shape (512, 512) and 21 timesteps.
Raw dataset compNS_turb has 1000 samples of shape (512, 512) and 21 timesteps.
Sampler_train = <torch.utils.data.distributed.DistributedSampler object at 0x7ffce40770d0>
Sampler_test = <torch.utils.data.distributed.DistributedSampler object at 0x7ffce4077070>
Model = PretrainVisionTransformer(
  (encoder): PretrainVisionTransformerEncoder(
    (patch_embed): PatchEmbed(
      (proj): Conv3d(3, 384, kernel_size=(2, 16, 16), stride=(2, 16, 16))
    )
    (blocks): ModuleList(
      (0-11): 12 x Block(
        (norm1): LayerNorm((384,), eps=1e-06, elementwise_affine=True)
        (attn): Attention(
          (qkv): Linear(in_features=384, out_features=1152, bias=False)
          (attn_drop): Dropout(p=0.0, inplace=False)
          (proj): Linear(in_features=384, out_features=384, bias=True)
          (proj_drop): Dropout(p=0.0, inplace=False)
        )
        (drop_path): Identity()
        (norm2): LayerNorm((384,), eps=1e-06, elementwise_affine=True)
        (mlp): Mlp(
          (fc1): Linear(in_features=384, out_features=1536, bias=True)
          (act): GELU(approximate='none')
          (fc2): Linear(in_features=1536, out_features=384, bias=True)
          (drop): Dropout(p=0.0, inplace=False)
        )
      )
    )
    (norm): LayerNorm((384,), eps=1e-06, elementwise_affine=True)
    (head): Identity()
  )
  (decoder): PretrainVisionTransformerDecoder(
    (blocks): ModuleList(
      (0-3): 4 x Block(
        (norm1): LayerNorm((192,), eps=1e-06, elementwise_affine=True)
        (attn): Attention(
          (qkv): Linear(in_features=192, out_features=576, bias=False)
          (attn_drop): Dropout(p=0.0, inplace=False)
          (proj): Linear(in_features=192, out_features=192, bias=True)
          (proj_drop): Dropout(p=0.0, inplace=False)
        )
        (drop_path): Identity()
        (norm2): LayerNorm((192,), eps=1e-06, elementwise_affine=True)
        (mlp): Mlp(
          (fc1): Linear(in_features=192, out_features=768, bias=True)
          (act): GELU(approximate='none')
          (fc2): Linear(in_features=768, out_features=192, bias=True)
          (drop): Dropout(p=0.0, inplace=False)
        )
      )
    )
    (norm): LayerNorm((192,), eps=1e-06, elementwise_affine=True)
    (head): Linear(in_features=192, out_features=1536, bias=True)
  )
  (encoder_to_decoder): Linear(in_features=384, out_features=192, bias=False)
)
number of params: 24.029376 M
LR = 0.00006250
Batch size = 16
Number of training steps = 50
Number of training examples per epoch = 800
Param groups = {
  "no_decay": {
    "weight_decay": 0.0,
    "params": [
      "mask_token",
      "encoder.patch_embed.proj.bias",
      "encoder.blocks.0.norm1.weight",
      "encoder.blocks.0.norm1.bias",
      "encoder.blocks.0.attn.q_bias",
…
